CNN/model_img.pth (torch, 89871 bytes, 8 tensors)

conv1.weight f4 [10, 1, 5, 5]
000000 e5 82 90 be 2b 07 25 3d 34 ab 41 bd 62 2f fc 3d
       -0.28224865 0.04029004 -0.047282413 0.12313725
000010 d1 f3 a7 3d 68 c3 97 bd 5f 83 00 3c 9b f2 17 3c
       0.08200801 -0.07410318 0.007843821 0.00927415
000020 bc 8f c0 3d 76 9e a0 bc 6f 8b 23 be 8c a1 0d be
       0.09402415 -0.01960681 -0.15971158 -0.13831156
000030 46 3c 84 bd 33 f6 a8 bd 00 02 0d 3e ed 67 ba bd
       -0.06456809 -0.08250084 0.13770294 -0.091018535
000040 22 91 56 be 37 28 88 be b6 38 30 be 79 ae 1a be
       -0.20953801 -0.26593181 -0.17209134 -0.15105619
000050 d6 2a 1c be cc c8 cf bd 19 83 c9 bc 76 b6 20 bc
       -0.15250716 -0.10145721 -0.024598645 -0.009809127
000060 b3 92 4c be 6e a4 38 3d f1 46 c5 3d 4d 99 3b 3e
       -0.19977836 0.045078687 0.096326716 0.18320198
000070 2a 77 95 3d ab ed 82 be 60 3d ae be 82 ef 3f be
       0.07298119 -0.2557195 -0.340312 -0.18743709
000080 00 a7 27 3e cf db 17 3d bd 60 e5 3d 6b ce b7 be
       0.16372299 0.03707486 0.11200092 -0.35899672
000090 04 9a 85 bd 82 82 49 be 7b 0b a0 3d 3b 33 42 bc
       -0.06523517 -0.19678691 0.0781469 -0.011853035
0000a0 0e 61 b3 be 26 d4 b3 bd 06 91 51 be 48 11 d0 bd
       -0.35034984 -0.087806985 -0.20465478 -0.10159546
0000b0 cf bf bd bd 48 95 4e be 17 de 9d be 74 73 40 be
       -0.092651 -0.20174134 -0.30833504 -0.18794042
0000c0 fc ad 73 bd c1 20 92 bd b4 68 f9 3d 9c d1 02 3e
       -0.059492096 -0.071351536 0.12178174 0.12775272
0000d0 01 7f e9 bb d5 7a 63 be e4 56 9c bc 95 05 ed bd
       -0.0071257357 -0.22214825 -0.019084401 -0.1157333
0000e0 31 d5 72 be 00 34 bd 3d 1c 22 40 3d 19 e7 72 3d
       -0.23714139 0.09238434 0.04690753 0.059302423
0000f0 9c 1a 83 be 60 04 10 be d8 e0 9d bd 68 8e 20 bd
       -0.2560624 -0.14064169 -0.07708901 -0.03919831
000100 cc 80 7e be e1 95 4f be a6 55 21 3d 12 e3 d8 bd
       -0.2485382 -0.20272018 0.03938832 -0.10590185
000110 54 96 86 3d 27 f8 90 bd f0 21 d1 bc 90 53 8c 3b
       0.065716416 -0.07078581 -0.025528878 0.0042824224
000120 87 05 71 3d ce 42 8c 3d 5f 3a 82 be 64 75 8b 3d
       0.058843162 0.068486795 -0.2543516 0.068095
000130 85 2a 40 be 25 6c 73 be 09 b7 cf bd da 3f e1 bd
       -0.1876622 -0.23771723 -0.10142333 -0.10998507
000140 66 fd e7 3d c4 ea 1b be 72 05 8b be 09 2d 66 3d
       0.11327629 -0.15226275 -0.27152592 0.056195293
000150 cb 53 ab bd 02 b9 a9 3d a5 a0 08 3d a6 41 5f be
       -0.083655916 0.082872406 0.033356328 -0.21802387
000160 4b c6 84 3b 33 98 9d 3c ed df 73 be 1b 32 2b be
       0.0040519587 0.019237613 -0.2381589 -0.16718332
000170 63 0f 81 3b 97 50 00 3c 76 f2 fa bd b3 a8 3d be
       0.003938602 0.007831714 -0.12253277 -0.18521385
000180 0a 71 c5 3d 12 15 dd bd 9b e3 8b 3d 2d ba f1 3c
       0.09640701 -0.107950345 0.06830522 0.02950772
000190 0c 5a a3 be 48 34 b4 be 3d 77 38 3d 4c 87 6f bd
       -0.31904638 -0.35196137 0.04503559 -0.05847864
0001a0 8e 00 b0 3d 6c c0 a5 bd d4 c2 2d bd 09 16 ea 3d
       0.08593856 -0.08093342 -0.04242213 0.11429984
0001b0 2d b2 49 3e 72 b4 3b be 0e 3d ac bd 8f e0 88 3c
       0.19696875 -0.18330553 -0.08410083 0.01670864
0001c0 1d 61 4c 3d 1a 63 a3 3d 78 cb 49 be 13 72 78 be
       0.049897302 0.079778865 -0.19706523 -0.24262266
0001d0 93 99 80 be 85 a7 ab bd 2e 7b 41 3e 75 24 ea bd
       -0.25117168 -0.08381561 0.18894646 -0.11432735
0001e0 e7 cf 47 bd 8b 1b 84 be 3c d5 8b be a8 68 4c bd
       -0.048782256 -0.25802264 -0.27311122 -0.049904495
0001f0 82 25 1c 3e b0 5f 36 3e 60 39 df bd 82 e4 6a 3d
       0.15248683 0.1780994 -0.10899615 0.05734683
000200 aa bd 24 3e 97 e2 63 3d 20 6a d0 3d 29 6a f7 3d
       0.16087976 0.055636015 0.10176492 0.12080795
000210 22 12 b8 3d c1 4d 93 bc 76 f0 7d be 8f 19 8f be
       0.089878336 -0.017981412 -0.2479876 -0.27949187
000220 6f c5 89 be 0a 46 34 be 1b df 70 be 7a 77 b0 bc
       -0.26908442 -0.17604843 -0.23522608 -0.021541346
000230 22 e9 7b bd 2d 28 53 be 2b ab 52 bc 35 b7 cd bb
       -0.06150163 -0.20620795 -0.012858192 -0.0062779435
000240 22 f2 e8 3d 81 2a 30 3d e1 87 21 be f9 e3 c5 3d
       0.11374308 0.043009285 -0.1577449 0.09662623
000250 2f e3 ec bd 83 7e 5a bd 04 65 90 be 37 30 9f be
       -0.11566769 -0.053343307 -0.2820207 -0.31091473
000260 b5 99 90 be 6e db 3c be a7 99 d1 3b 05 f5 94 be
       -0.2824227 -0.18443081 0.0063964906 -0.29093185
000270 a6 fd b4 be 7e d7 f0 bd f6 a2 cb bd e6 63 c6 bd
       -0.35349768 -0.11759852 -0.09943192 -0.09687023
000280 9f b7 be be 00 cc 53 be 8b 36 88 be 7e 18 2a be
       -0.37249467 -0.20683289 -0.26604113 -0.16610906
000290 1e 83 d1 be 32 f2 d9 be ac 4b a7 be c9 4e c2 bd
       -0.40920347 -0.42567593 -0.3267492 -0.09487683
0002a0 45 f6 c5 bd c8 4d 90 be 1a 81 1e be c8 26 da bd
       -0.09666113 -0.28184342 -0.15478936 -0.10651928
0002b0 2c f1 09 be 2b 64 83 be 0e 79 12 bf ab da 34 3d
       -0.13470906 -0.2566236 -0.57215965 0.04415385
0002c0 0f 0e 22 be 8d 64 ed bd 2a 6c 6e be a2 1a b0 bd
       -0.15825675 -0.11591444 -0.23283449 -0.0859883
0002d0 a7 3e 63 be e3 34 53 3c 57 1c b1 be b1 5e 94 be
       -0.22191869 0.012891027 -0.34591934 -0.28978494
0002e0 d4 e5 99 bd a8 fe 3a be a5 94 5e bd af 58 3c be
       -0.07514539 -0.18261206 -0.054340977 -0.18393205
0002f0 16 7f 2a be 70 54 df 3c 5f c8 52 3d 00 63 4f be
       -0.16650042 0.027261943 0.05146062 -0.20252609
000300 29 57 cc 3d 8f b5 45 3e 57 dc 99 3e 6e f4 92 be
       0.09977562 0.1930754 0.30050918 -0.2870211
000310 a2 87 49 bc 07 43 0e be e3 ef 38 3e ef 70 ce bd
       -0.012300404 -0.13892756 0.1806026 -0.10080134
000320 c2 7e cf 3d e9 a2 8b bc 5d 94 94 bd 9b 79 46 be
       0.10131599 -0.017045455 -0.072548606 -0.19382326
000330 d9 b6 31 be 40 44 f7 3c e8 39 5a bc 42 21 f9 bc
       -0.17354907 0.030183911 -0.01331947 -0.030411366
000340 32 f1 d3 be 4e b8 c6 bd 23 a2 af 3d 1d c6 ff 3d
       -0.41394955 -0.09703122 0.08575847 0.12488959
000350 ef b2 91 3d 92 1d b3 be a9 88 8f be b3 d2 9c 3d
       0.07114207 -0.34983498 -0.2803395 0.07657375
000360 1b f0 3e be 44 ae 10 3e b8 5c 8d be 5a 7c 88 be
       -0.1864628 0.14128977 -0.276098 -0.26657373
000370 da ed 86 bc b8 d3 40 be 6e 2f d5 bd 0d b6 36 3d
       -0.016470838 -0.18830764 -0.10409437 0.04460721
000380 52 e6 82 3d 9b eb 21 3d ec c6 a5 bd 3c 75 bb bd
       0.06391586 0.03953133 -0.08094582 -0.0915322
000390 f2 c4 93 3e 7e 93 3a 3d ed 3d 49 be ae a9 25 3d
       0.28861195 0.045550816 -0.19652529 0.040445022
0003a0 e4 47 f6 bd 7d 90 0d 3e 64 27 3f 3e 56 ff 6a be
       -0.12025431 0.13824649 0.1866737 -0.22948965
0003b0 bf fc 62 be 54 f6 d2 bd cc 53 d5 bc ea cb a7 bc
       -0.22166727 -0.103008896 -0.026040934 -0.020482976
0003c0 6a 5a 0f be 63 79 f7 bd 29 5f a0 be bd ee 81 be
       -0.13999334 -0.120836996 -0.313226 -0.25377455
0003d0 53 c3 50 be 10 aa 22 3e 79 df 08 3e 88 99 91 bd
       -0.2038701 0.15885186 0.13366498 -0.07109362
0003e0 f4 e0 52 bc d7 71 05 3d
       -0.012871016 0.03257927

conv1.bias f4 [10]
000000 5a 42 8d 3c a6 d9 0c be f1 30 ed 3d 9e 74 0e 3d
       0.017243553 -0.13754901 0.115816005 0.034779184
000010 80 6e fb 3c 69 21 ac bd 47 f4 c2 ba 93 01 bd 3d
       0.030692339 -0.0840481 -0.0014873826 0.09228816
000020 5b ca 0d be 1f 17 08 3e
       -0.13846724 0.1329007

conv2.weight f4 [20, 10, 5, 5]
000000 85 80 f8 bc 3a 0c 7d bd 05 c7 4b 3d c2 da 2d bd
       -0.03033472 -0.06177924 0.049750347 -0.04244495
000010 e8 c2 45 3c 2c 02 aa bd 4c b6 4a bd 2d 86 c8 bc
       0.012070395 -0.083011955 -0.049490258 -0.024478042
000020 7d e5 45 bd fe 6d ef bc f2 2b 1c bd c5 b7 b8 bd
       -0.04831456 -0.029227253 -0.038127847 -0.09019426
000030 32 62 ec bd f9 e6 40 bd f8 f2 a0 bd 64 ce d4 bc
       -0.11542167 -0.047095273 -0.078588426 -0.025977321
000040 69 c8 6f bd d3 f2 12 bd 6e 9c f3 ba e7 bd 44 bd
       -0.058540735 -0.035876106 -0.0018586048 -0.048032667
000050 6a 71 af bd 1d 89 b9 bd eb 20 cd bd 0f 34 d7 3b
       -0.08566554 -0.090593554 -0.10016044 0.006567485
000060 dc 77 a5 bd 07 53 fb bb de 9e 92 bd 83 92 18 bd
       -0.08079502 -0.0076698097 -0.07159208 -0.0372491
000070 d4 c7 9f 3d d9 25 73 3d d8 e6 39 bd 95 c9 36 be
       0.07801786 0.059362266 -0.045386165 -0.17850335
000080 09 b2 58 be 20 2d d9 bd 27 c5 f7 bd de 63 94 bd
       -0.21161665 -0.1060431 -0.12098151 -0.07245611
000090 a9 26 d9 bd 97 dc 37 be 6e e8 b6 bd bd 9b cf bd
       -0.10603077 -0.17955242 -0.08931051 -0.101371266
0000a0 ec 6f b3 bd f5 31 e2 bd d6 8f 1d be 79 8f be bc
       -0.08761582 -0.11044685 -0.153869 -0.023261772
0000b0 3d 42 d1 bd f7 7d 9c bd 46 ab eb bd fa f0 c6 bd
       -0.10217712 -0.076412134 -0.11507277 -0.097139314
0000c0 29 30 7b bd b8 60 c4 bd 8d f2 a3 3d 3c 5e a7 bd
       -0.061325226 -0.0958876 0.08005247 -0.08172271
0000d0 70 af 3d bd 72 22 f0 3c 99 1b 6e 3d 29 3c 85 bc
       -0.04630989 0.0293133 0.058131788 -0.016264038
0000e0 a2 b2 00 be 85 f1 23 be 93 a7 bd bd 03 f2 8b 3a
       -0.12568143 -0.16010101 -0.09260478 0.0010676984
0000f0 c1 cd fa 3a 57 e0 9a bd 89 0a f6 bd 09 6a 9b bb
       0.0019134806 -0.07562321 -0.12013728 -0.004742865
000100 20 6b 89 bc 49 d4 86 bd 71 a3 51 bb 10 45 cb bc
       -0.016774714 -0.06583459 -0.0031988288 -0.024813205
000110 be 0e 20 3d 3c e1 cf bd d2 b1 94 bd d4 f0 ab bd
       0.03907656 -0.10150382 -0.07260479 -0.08395544
000120 e6 25 e1 bd b6 cc a8 bd 71 6a 16 bd fd 12 4d 3c
       -0.10993557 -0.082421705 -0.036722604 0.012516734
000130 f9 ce a0 bd 0f 5c 06 be 58 03 08 be 9a ad 8d 3d
       -0.07851977 -0.13121055 -0.13282526 0.069178775
000140 b3 e0 24 bd 35 a5 15 bd 53 1a 8e bd b0 80 8a bd
       -0.040253352 -0.036534507 -0.06938615 -0.067628264
000150 85 cd 73 bd bf 6c bc bd 0f e0 90 3b 11 13 64 bc
       -0.05952217 -0.09200429 0.004421241 -0.013920561
000160 8d 58 b6 bc bb f3 df bd b3 28 d8 bc 65 da 09 bb
       -0.022259021 -0.1093516 -0.026386594 -0.0021034714
000170 17 af 2e 3d 3a 38 be bb 9b 6a 4e bd 10 7a 50 bb
       0.042647447 -0.0058050426 -0.050394636 -0.0031811036
000180 99 14 7e bd ed c7 b7 bd 6e a9 ad ba c7 61 23 bd
       -0.062031362 -0.0897368 -0.0013249347 -0.03988817
000190 29 29 b4 3c 74 2b c6 bd db 01 dd bd 6d 07 4f bd
       0.021992283 -0.09676257 -0.107913695 -0.05054419
0001a0 b0 00 1c bd c8 c5 96 bc b0 b6 2f be fb 0c 11 be
       -0.038086593 -0.018404856 -0.17159534 -0.14165108
0001b0 4f d1 d5 bd 50 b0 36 bd 20 81 ac 3b f6 9a ce bd
       -0.10440313 -0.04460174 0.0052644163 -0.1008815
0001c0 28 bb 0f be 06 a2 4c 3d ff 4a 56 3d b5 77 55 bd
       -0.14036238 0.049959205 0.052317616 -0.052116115
0001d0 6a b1 b2 bd 7d b2 ed bd 3c 04 bd 3d 75 e4 96 bd
       -0.08725245 -0.116063096 0.09229323 -0.073677935
0001e0 a8 3a 10 be 18 0b f2 bc 00 dd 56 ba d7 de 4d 3d
       -0.14084876 -0.029546306 -0.0008196384 0.050261345
0001f0 ec 94 c7 bd fc de 86 bb 2e f4 76 bd 19 87 6d bc
       -0.097452015 -0.0041159373 -0.06029146 -0.014497542
000200 69 ac c8 3b 4b 6a f1 3c e8 4a 30 3a 37 06 e5 bd
       0.0061240685 0.02946963 0.0006725029 -0.11182826
000210 be cb c9 bd 06 66 7a bd 54 34 86 3d 22 f1 e7 bc
       -0.09853314 -0.061132453 0.065529495 -0.028313223
000220 94 95 02 be 3c 3a 5a bd 0b b0 a6 bc 62 b4 88 bd
       -0.12752372 -0.053278193 -0.020347616 -0.0667503
000230 be 7f be bd f2 40 10 be 6b 06 d0 bd 38 83 12 bd
       -0.09301709 -0.14087275 -0.10157474 -0.03576967
000240 64 59 bd bc ee 8c 8b bd 9e 27 aa bd 32 64 c3 3b
       -0.023113914 -0.068139896 -0.08308338 0.005962872
000250 d6 4b 6c 3d fc f9 90 bd e9 d2 94 3d 05 fe 30 3d
       0.05768951 -0.07078931 0.072667904 0.043211002
000260 99 c3 c7 bd 46 86 1a be 39 8a 5f be 1f 98 53 3d
       -0.09754104 -0.15090284 -0.21830072 0.051658746
000270 ee 56 ca bd b2 93 6d b9 02 99 97 bd ca 0b 8e 3d
       -0.09879862 -0.00022657102 -0.07402231 0.06935842
000280 5d 30 7a 3d 36 d5 84 bc e2 04 b2 bd 39 bf 5e 3c
       0.06108128 -0.016214948 -0.086923376 0.013595396
000290 9a de d4 3c dd 21 4a bd 47 b4 8a bd 6e 49 28 bd
       0.025985051 -0.0493487 -0.067726664 -0.041085653
0002a0 5e 1b a0 3d 10 57 56 bd dd 05 20 bd 02 ca 75 bd
       0.0781772 -0.052329123 -0.03906809 -0.060007103
0002b0 5c a5 aa bc 48 2f ac 3c 2e 39 16 be 4f 09 6f 3d
       -0.020830803 0.02101864 -0.1467025 0.058358487
0002c0 a5 4e e9 bd 30 f0 2e bd 7c 75 22 be d0 4f b8 3c
       -0.113919534 -0.04270953 -0.15865129 0.022498995
0002d0 5d 20 bb 3c 6a 84 91 3c b7 75 62 bd 9f 81 4f 3b
       0.02284258 0.017763335 -0.055288043 0.0031662954
0002e0 19 8e 0f bd 28 83 de bd dc 29 7a bc 89 77 ab 3b
       -0.035047624 -0.1086486 -0.015268769 0.0052327556
0002f0 4e 55 48 3d 92 07 c0 bd 08 39 0a bd c2 bb 33 bc
       0.048909478 -0.09376444 -0.033745795 -0.010970058
000300 58 13 a0 bd 0c 9c e0 bd 8a c7 46 bd 87 69 36 bd
       -0.078161895 -0.109672636 -0.04853014 -0.044534232
000310 c7 bc a3 bc 15 95 22 be db a7 b7 bb 59 38 2e 3d
       -0.019987477 -0.15877183 -0.0056047267 0.042534206
000320 69 2f 8e 3c a5 9a 93 3d ea 8f 3a be 89 d4 f9 bd
       0.017356591 0.072072305 -0.18218961 -0.12198741
000330 d7 2c 9d bb 0b 33 52 bd 32 1b 2b 3d 0f 94 2c be
       -0.004796605 -0.05131821 0.041773982 -0.16853355
000340 37 7a 01 be d7 f5 a3 bc 70 46 b7 3d 3f 9c 73 3c
       -0.12644278 -0.020014687 0.08948982 0.014868795
000350 71 97 0e be ab 91 ca bd b0 18 16 bd d8 4a 7f bc
       -0.13924958 -0.09891065 -0.036644638 -0.015581809
000360 f8 e0 6f bd 14 37 8d bd 68 07 51 bd c1 a5 92 3c
       -0.058564156 -0.06895271 -0.051032454 0.017901303
000370 f6 f2 81 3d 15 49 e0 bd b5 b3 de bc 11 83 9a 3b
       0.06345169 -0.10951439 -0.0271853 0.0047153314
000380 01 4d 65 3c 11 6c a3 3c 7d 61 6e 3c 62 ad cd bc
       0.01399541 0.019948991 0.01454961 -0.02510709
000390 5c 0a 8d 3c 7d 9c b7 bd 3b c8 35 bd c1 cf 69 bd
       0.017216854 -0.08965395 -0.044380408 -0.057082895
0003a0 e4 c0 a3 bc 79 aa ca bd 8d 83 01 be 0d 68 eb bb
       -0.019989438 -0.09895796 -0.12647839 -0.0071840347
0003b0 0a b8 d9 bd a8 f4 fd bd f6 41 f0 bd 7e 79 bd bd
       -0.10630806 -0.1240018 -0.11731331 -0.092516884
0003c0 37 59 ff bc 26 54 82 bd d0 77 be bd 03 2c f7 bd
       -0.03117047 -0.06363706 -0.09300196 -0.120689414
0003d0 29 0c ac bc 44 e8 6a bd 9e 5c a7 bd a0 a2 c5 bc
       -0.021001892 -0.057350412 -0.08171962 -0.024125397
0003e0 66 96 81 bd 04 31 8b bb ff c7 da bb c3 7e c9 bd
       -0.06327514 -0.0042477865 -0.0066766734 -0.09838631
0003f0 bd 41 aa bd 8f 80 19 bd 7f 0b d7 3b 9c 57 84 bd
       -0.0831332 -0.03747612 0.0065626497 -0.06462023

conv2.bias f4 [20]
000000 7d 9a 5b bd 3b fe 53 be c2 a2 98 bd 1c 2d 7e bd
       -0.05361413 -0.2070245 -0.074529186 -0.06205474
000010 9c 0c 9b bd 5a 63 80 bd ca a1 e4 3b 76 17 1a be
       -0.075707644 -0.0626895 0.0069772946 -0.15048012
000020 6d f2 94 bd f4 ac 16 3c ef fd ef bd 3d 1f 2d be
       -0.072728015 0.009196509 -0.11718356 -0.16906448
000030 5c ea 38 bd 46 d8 bb 3c 19 cc 94 bd f3 05 4e bd
       -0.045145378 0.022930276 -0.07265491 -0.050298642
000040 5f 2c 77 bd f4 c5 b3 bd 82 e9 31 bc 02 a8 01 bd
       -0.06034505 -0.08777991 -0.010858895 -0.031654365

fc1.weight f4 [50, 320]
000000 96 ab ce 3c e3 93 25 be b0 8a bd 3d 3d 76 8f 3c
       0.025228303 -0.16169696 0.09254968 0.017512435
000010 c4 56 f2 bd ec 7d 7d be ed 86 9c bd 98 3f a7 bd
       -0.118329555 -0.24755067 -0.076429226 -0.081664264
000020 1f b3 30 be 7b 45 a5 be 3e 9c 3b bd 72 5b ea bd
       -0.1725583 -0.32279572 -0.0458033 -0.11443223
000030 e6 37 59 be e8 8b 26 bd ff 65 24 3d 01 a8 88 3c
       -0.2121273 -0.04066077 0.040136334 0.016681673
000040 f3 a5 4a bc 18 af 4f bd f7 2a 28 3d 21 e4 e1 3c
       -0.012368667 -0.05070409 0.0410566 0.0275746
000050 27 11 2e 3c 22 29 f9 bc d0 bf 9c 3d 70 20 aa 3d
       0.010624207 -0.030415121 0.07653773 0.08306968
000060 fe 4c 2c 3c 05 ad b3 3a 7b 5f 1c 3d 80 d9 5a 3d
       0.010516403 0.001370818 0.038176995 0.05343008
000070 58 3a dd bd 58 2c 52 bd 32 28 83 3c f1 32 82 bc
       -0.10802144 -0.05131182 0.016010378 -0.015893431
000080 79 00 31 3d 3a f1 1e 3e 90 a5 44 be 1c 09 35 bd
       0.04321334 0.15521708 -0.19203782 -0.04419814
000090 9f 21 1e bc 45 a3 81 3d 7c 67 85 be d2 85 a3 be
       -0.009651571 0.06329969 -0.26055515 -0.31938034
0000a0 40 ba 44 bd a8 69 23 bd 83 61 a1 be 59 74 cd be
       -0.048029184 -0.039895684 -0.31519708 -0.4012783
0000b0 d2 9f 3c bd 84 7b 8b bc 89 6b 39 be cc 73 0a 3e
       -0.046050854 -0.01702667 -0.18107428 0.13520736
0000c0 ed c7 9d bd 6a 61 0f be 40 88 49 be 93 17 d5 3c
       -0.077041484 -0.14002004 -0.19680882 0.026012218
0000d0 81 42 8c bd d4 93 11 be ac c4 75 be c5 73 45 bc
       -0.06848622 -0.14216548 -0.24000806 -0.012051527
0000e0 07 07 d2 bd 00 a4 a7 bd ac 69 c7 bd b3 6e 3b bd
       -0.102552466 -0.081855774 -0.09736952 -0.045759868
0000f0 b9 ec 87 3d be 87 7f 3d 09 f1 71 3c 1e 55 fc bb
       0.06636948 0.062385313 0.01476694 -0.0077005764
000100 be 0a 61 bd c3 5c 1b bd a8 1a 03 bd f9 0b e4 bb
       -0.054941885 -0.03793026 -0.032007843 -0.006959435
000110 fc b6 78 bd 9d bf 19 3d 6f 82 a1 3c ed c9 04 bd
       -0.060721382 0.037536252 0.019715516 -0.032419134
000120 60 68 f8 bc fa a1 b5 3d eb 55 a3 3c 7b b9 80 bd
       -0.030323207 0.08868785 0.01993843 -0.062853776
000130 84 e8 e2 3c f5 4d ec 3d 6a 65 e0 3c f3 2b 94 bd
       0.027698763 0.115383066 0.027392108 -0.07234945
000140 eb b4 7b bd d3 ff 26 3c 20 07 b4 bc a5 8b 08 3d
       -0.061451834 0.010192829 -0.021976054 0.0333363
000150 ac 4d b0 3b ec 73 e1 3c 76 0e 9b ba b4 77 d6 bc
       0.005380353 0.027521096 -0.0011829871 -0.026180126
000160 14 cb 0f 3d d4 6a a6 3d 19 7f 7b 3d 70 10 05 3d
       0.03510578 0.081258446 0.061400507 0.03248638
000170 4b 5e 34 3e f9 fe 10 3e 35 f7 cf 3c 68 ac fb bc
       0.17614095 0.14159764 0.025386432 -0.030721858
000180 e1 8c 46 3c 5f b8 cd 3b 3e 73 ac 3d 80 8d 6c 3d
       0.012118549 0.0062780823 0.08420418 0.057752132
000190 22 1c 22 bd ee 1a 20 be f5 2f 50 3d 65 6a 30 3d
       -0.03957761 -0.15635273 0.050826985 0.043070216
0001a0 e3 da ba bc 79 86 0d be f2 8c b2 bc 0f 5c fb bc
       -0.022809451 -0.13820828 -0.021795724 -0.030683545
0001b0 8d 14 c4 3c e7 2c 0e 3d a6 5b 77 3d 46 df f6 3c
       0.02393558 0.03471079 0.060390137 0.030135762
0001c0 ca 36 a4 bd 12 65 85 be 25 31 58 be bf 94 2c 3d
       -0.08018263 -0.26053673 -0.21112497 0.042134043
0001d0 61 5c 50 3c 38 9c a8 3c 08 40 0f be 2e f0 8b 3d
       0.012717337 0.020582303 -0.1398927 0.0683292
0001e0 21 5b 47 bd d5 2a c9 bd 4f 4a 39 be 5f dc 00 ba
       -0.04867089 -0.09822623 -0.18094753 -0.00049156504
0001f0 ab 8d 03 bf 59 f1 1f bf aa 26 e7 be 32 13 aa be
       -0.51388043 -0.6247764 -0.45146686 -0.3321777
000200 c2 ad 4a 3d 02 f5 ca 3c ff 48 e6 3c 58 d6 f2 3c
       0.049482115 0.024775032 0.02811098 0.029643223
000210 f8 34 23 3d f1 2a 83 bd 39 17 9a bc a3 b5 17 3d
       0.039845437 -0.06404675 -0.018809902 0.037038457
000220 60 f4 fc ba 1b 9f f7 3c c2 ee 52 bc 28 13 64 bb
       -0.0019298904 0.030227235 -0.012874307 -0.0034801457
000230 25 8f aa bc 84 de 07 bc 57 73 a4 3c 60 13 56 3d
       -0.02082021 -0.008292798 0.02007453 0.05226457
000240 54 f2 cf bb df 53 be bc d5 95 61 3d 05 9d f5 bc
       -0.0063460264 -0.023233352 0.05507453 -0.0299821
000250 51 30 e0 bc 6f 3b 47 bd f3 35 8b 3c 07 91 d7 ba
       -0.027366789 -0.048640665 0.016993498 -0.001644642
000260 21 9f 95 bd 53 3a a8 bd 91 28 12 bd 00 58 94 bc
       -0.07305742 -0.082142495 -0.03568322 -0.018108368
000270 c3 56 ba bd 38 57 cc bd 3c 1b 01 be db 31 dc bc
       -0.0909858 -0.09977573 -0.12608045 -0.026879242
000280 23 ae 7f bd 7d a5 e7 3c 49 a5 57 3d 0c 79 67 bc
       -0.06242193 0.028277153 0.052647863 -0.014127981
000290 26 04 15 bd 2a c1 67 3d ea ee ad bc 8e b9 31 3d
       -0.03638091 0.0565807 -0.021232087 0.04338985
0002a0 ce 6a 59 3d a5 93 0d 3c b5 3f 10 3c b5 61 05 bd
       0.053080373 0.008641158 0.008804251 -0.032563884
0002b0 45 f8 8c 3d 6e be fb bc 92 82 03 3c 13 56 dd bc
       0.06883291 -0.030730452 0.008026736 -0.027018582
0002c0 99 29 af 3c 0c ee 5b 3c c4 9a 66 3d 17 d0 68 bc
       0.02138214 0.013423454 0.05629994 -0.014209769
0002d0 09 4e 0c 3d 92 ad 99 bc 3b 16 26 3d fc 36 0c bd
       0.034254108 -0.018759523 0.040548544 -0.034232125
0002e0 e3 e2 53 3c 26 69 f5 3c 79 5f 22 bd 20 44 80 bd
       0.012932512 0.029957365 -0.03964183 -0.06262994
0002f0 d5 1f 8f bc 71 8f 8a bc 6d 4e 40 bd ba bd 80 bd
       -0.017471233 -0.016914101 -0.046949793 -0.062861875
000300 85 c1 93 3c 12 ba 4d 3d 5d 99 a6 3d 57 13 43 3c
       0.018036613 0.05022628 0.081347205 0.011906466
000310 2d 26 8a bb 7f ec d5 bc 97 3d 8e 3d 2e 63 06 bd
       -0.0042159767 -0.026113747 0.06945341 -0.03280943
000320 5a ae 1c 3d 76 f0 bb 3c 0c ec 48 3d ae 65 d3 bc
       0.038252212 0.02294181 0.049053237 -0.02580532
000330 8d b0 bc bd 85 6d b2 bb 18 5b 28 3d ed 0f 7d 3c
       -0.09213362 -0.0054451847 0.0411025 0.0154456915
000340 59 e8 a3 3d 0d a9 0c 3c cc 56 43 3c c3 cc 55 bc
       0.08003301 0.008585227 0.011922549 -0.013049307
000350 ca e0 21 bd ea 31 70 3b f3 fe 3f 3b da ba a5 bc
       -0.039521016 0.0036650845 0.0029296249 -0.0202307
000360 f1 1a b2 bc e3 e3 28 3d 1f cf 5e 3d 30 6a 2b 3c
       -0.021741362 0.041232955 0.054396745 0.010462329
000370 1d 05 90 3d 59 ee 0c bc 1e 6d 14 bd 42 52 cb bc
       0.07032225 -0.008601748 -0.036236875 -0.024819497
000380 1c 3c 1d 3d 25 5b 14 bd ef f9 71 3b 87 58 a6 bc
       0.038387403 -0.036219735 0.0036922654 -0.020305885
000390 d2 46 d7 bd ea 1a 21 bd fd 80 3e 3c 9b ea b0 bc
       -0.10511555 -0.039332308 0.011627433 -0.021596244
0003a0 3c 3d d6 3d d7 52 88 3d b9 2c 6b 3c c3 82 78 bb
       0.10460898 0.066564254 0.014353924 -0.0037919737
0003b0 f3 cf 33 bd 48 2d ba bd 07 54 23 be d3 10 40 be
       -0.043899488 -0.09090668 -0.15950023 -0.18756418
0003c0 8a 0a 15 bd 2e 4f 57 3d d0 af e1 bb 82 bf 78 3d
       -0.036387004 0.052565746 -0.0068874136 0.06072951
0003d0 7d 64 7e bd ae 89 9d 3a 33 47 0d 3d bc 05 84 bd
       -0.06210755 0.0012019181 0.03449173 -0.06446406
0003e0 8d 63 fb bc fc d6 7a bc 87 de 2a bc 25 35 4a bd
       -0.030687118 -0.015310045 -0.010429031 -0.04936709
0003f0 21 f2 0c bc c2 2a 03 3d a9 ac 9c bd ab cb 7b bd
       -0.00860265 0.0320232 -0.0765012 -0.06147353

fc1.bias f4 [50]
000000 ff a6 69 bc ab cf ee 3c 5b 16 4c 3d c1 b1 c2 3c
       -0.014261006 0.029151758 0.049826007 0.0237664
000010 a0 26 f6 3c d1 7e 14 3d c8 be 5e 3d 70 44 01 3d
       0.030047715 0.036253754 0.054381162 0.031559408
000020 0b 9d 86 bd 5e c0 e8 bb 44 6a 8f 3a 0b 59 87 bb
       -0.06572922 -0.00710301 0.0010941704 -0.004130488
000030 d7 3b b0 3d b9 06 15 3d 6c f2 4b 3d a1 0b 9f bd
       0.086051635 0.036383364 0.04979174 -0.0776589
000040 84 e5 0d bd 1b b7 9c 3d af 9b 0b 3c 86 22 4e bd
       -0.03464271 0.07652112 0.008521005 -0.050325893
000050 46 41 ed 3c 2c 22 ac 3c a7 a4 81 3d c6 ed 23 3c
       0.028961789 0.021012388 0.06330233 0.01000542
000060 03 3f 49 bd 16 a2 88 3c 69 61 dc bc 23 92 a4 3d
       -0.04913236 0.016678851 -0.026901918 0.08035686
000070 56 80 ea 3b 3e c5 5e bd 49 30 4a bd 18 6c 4c 3d
       0.007156412 -0.054387324 -0.049362455 0.049907774
000080 53 07 a4 ba a9 12 90 bd 26 bf 15 3d 53 b1 b3 bc
       -0.001251439 -0.07034809 0.036559246 -0.02193514
000090 96 d5 0d bc d2 38 f0 3c 1f 45 d5 3d cb 7b 43 bc
       -0.00865688 0.029323969 0.104135744 -0.01193137
0000a0 17 78 7a 3b bd 5a 25 bb 21 87 00 be 11 7d 89 bc
       0.0038218552 -0.0025231086 -0.12551548 -0.01678327
0000b0 a9 d9 b0 bb b4 b8 d2 3c 00 ef c7 3d 1e 88 55 bd
       -0.005397041 0.025722839 0.097623825 -0.052131765
0000c0 45 42 f6 bb a1 f7 ed bc
       -0.007515224 -0.029048743

fc2.weight f4 [10, 50]
000000 2f 02 17 be d7 26 1d be 6f 68 f8 bd a4 60 15 be
       -0.14746927 -0.15346847 -0.12129294 -0.14587647
000010 52 03 2c 3c 3d e6 78 3d 44 cf d6 bd a7 27 03 be
       0.0104988385 0.060766447 -0.104887515 -0.12808095
000020 6d 23 fe bb 9b b2 b3 3d be 4c 18 3d 80 3b 98 bd
       -0.007755688 0.08774301 0.037182562 -0.07433224
000030 b4 e3 57 3e 83 31 8a 3e ba ee ec 3d a0 65 77 bd
       0.21082956 0.269909 0.11568971 -0.06039965
000040 36 ed f6 3d e8 43 81 be 53 17 07 be 46 62 53 be
       0.12056963 -0.2524712 -0.13192491 -0.20642957
000050 33 15 34 be d7 3e 83 be 4a 6a 3b be 08 7e 72 be
       -0.17586212 -0.2563388 -0.18302265 -0.2368089
000060 d7 6e 02 3e 4e dd a5 3d 7b 2f b5 bd 48 43 01 3d
       0.12737595 0.08098851 -0.08846947 0.031558305
000070 97 53 14 3e ea 4d e9 3b 3c 85 28 be 26 30 38 3e
       0.14485012 0.007119884 -0.16457075 0.17987117
000080 2a 5f e7 3d 23 5b 94 3b b4 ca d5 bc 4c 9c 3e be
       0.11297448 0.004527466 -0.026097633 -0.1861431
000090 16 ee 8c be 5f f3 29 be 53 35 00 3e 1a 55 c6 bd
       -0.27525395 -0.16596745 0.12520342 -0.096842006
0000a0 8e 98 d8 3d 62 ec b9 3d 34 02 c9 bd 85 77 8b bd
       0.105759725 0.090782896 -0.09814873 -0.06809906
0000b0 59 57 87 3e b3 53 30 3d f6 50 b8 3d e7 28 96 3e
       0.26433828 0.04304857 0.08999817 0.2932808
0000c0 de d6 13 be 85 78 07 3d 88 46 90 be 1f e7 93 3d
       -0.14437434 0.03307392 -0.2817881 0.07221817
0000d0 22 72 80 be 4f 01 82 be 04 47 6f bd 29 51 31 be
       -0.25087076 -0.25391623 -0.058417335 -0.17316116
0000e0 c5 78 52 3d 3f 09 53 3d 87 25 3e be b1 d6 08 bd
       0.051384706 0.05152249 -0.18569003 -0.03340787
0000f0 e9 20 5a 3c 68 b2 68 be 51 97 e9 3d 2c 7c 34 3d
       0.01331351 -0.22724307 0.114058144 0.044063732
000100 13 88 5e be 92 2b 25 3d d0 a7 7b bd 46 40 13 3e
       -0.21731596 0.040324755 -0.061439335 0.14379987
000110 56 d6 d3 3d b4 db 70 3e 23 30 ce 3d 6a 97 4d be
       0.10343616 0.2352131 0.10067775 -0.20077291
000120 3a 8c 92 be 60 48 87 3e db 7a 90 3c 8f fa a1 3e
       -0.2862261 0.26422405 0.017636707 0.31636474
000130 36 27 a8 3e 54 e5 cc 3d f1 03 33 be 24 25 db bd
       0.32842416 0.10004678 -0.17481972 -0.107004434
000140 39 29 1b 3e 2c cc 28 3c 54 69 20 be bd b4 cc bd
       0.15152444 0.010302585 -0.1566518 -0.099954106
000150 0a 04 36 3d 06 13 7b 3e d7 11 84 bd 3b f8 bb 3d
       0.044437446 0.24518976 -0.06448715 0.091782056
000160 42 07 41 3d 3c 5d 3c be 57 bb d9 be d4 8a f9 bd
       0.047126062 -0.18394941 -0.4252574 -0.121846825
000170 b0 73 b1 be 4d e4 8e 3e 14 16 bd be 12 67 ee 3c
       -0.34658575 0.27908555 -0.36930907 0.029101882
000180 4f 67 67 3e 80 b2 77 be 5a 3b 41 bd 6e 97 8a bd
       0.22598003 -0.24189186 -0.047175743 -0.06767164
000190 99 2e 5a 3e 5e 9c 46 bc 86 99 50 be 0c 3b 01 3f
       0.21306838 -0.012122242 -0.20371065 0.50480723
0001a0 cb 93 d8 bd fe 68 30 be 37 47 ff 3d a7 e5 54 3d
       -0.10575064 -0.17227551 0.12464755 0.051976826
0001b0 93 32 03 bf 56 60 ee 3d 7f 89 53 3e 65 4f d8 3c
       -0.51249045 0.11639468 0.2065792 0.026405046
0001c0 dd f8 79 3d 7a 1a 60 bd 62 1e ce bd a9 13 43 be
       0.06102835 -0.05471275 -0.10064389 -0.19050469
0001d0 79 d5 f5 bd b8 80 46 be f9 db 52 bd 95 1e 92 be
       -0.12003607 -0.1938504 -0.051479314 -0.28538957
0001e0 d5 08 3f be 67 df 2a be 57 c4 9b be 8f 0d 15 3e
       -0.18655713 -0.16686784 -0.30423233 0.14555953
0001f0 5a 30 06 be b5 5f 94 be 2d e8 40 be 20 e4 6a be
       -0.13104382 -0.2897927 -0.18838568 -0.22938585
000200 42 c6 84 3c 10 aa 93 be 51 20 d1 bd fe 72 ab 3d
       0.016207818 -0.28840685 -0.10211242 0.083715424
000210 39 58 2e be 6f 2c 39 be 06 f3 74 bc 6f af 97 bd
       -0.17025842 -0.18083356 -0.014950519 -0.07406508
000220 6f 3c 10 bf bc 9f eb 3d e3 67 3d be a7 52 91 bd
       -0.56342214 0.11505076 -0.18496661 -0.07095843
000230 b2 73 fe 3e 91 17 2c 3e b2 b1 f1 be 9d 18 60 bb
       0.49697644 0.16805865 -0.47205883 -0.0034194358
000240 d6 53 1b be 31 7e e3 3d 96 d4 af 3d 53 d8 3a bf
       -0.151687 0.111080535 0.085854694 -0.72986335
000250 01 1a c1 be a9 2e a1 3b 8b fc c5 3d 46 01 18 be
       -0.37715152 0.0049188924 0.096673094 -0.14844236
000260 6d ca 0d 3e 1d 52 9a 3d 1b 26 0a bd 65 13 e9 3c
       0.1384675 0.07535193 -0.033727746 0.02845163
000270 a4 7c f9 bd 5e 4b a3 3d 34 33 09 be 29 eb a2 bd
       -0.121819764 0.079733595 -0.13398439 -0.079550095
000280 00 10 1f 3c a6 8b c5 bd c3 a3 30 be 3b 75 a5 bc
       0.009708405 -0.096457765 -0.1724997 -0.020197501
000290 58 78 c9 bd 24 67 40 3e 1b 12 ce 3b c5 b2 8a 3e
       -0.09837407 0.18789345 0.0062887794 0.27089515
0002a0 a2 1c 0f 3e f9 36 0c be e5 2e fb bd 96 82 fa bd
       0.13975766 -0.13692845 -0.12264804 -0.122319385
0002b0 45 4a e6 3d 74 8c ac bd fd bc 04 3e e8 03 12 be
       0.112446345 -0.08425227 0.12962718 -0.14259303
0002c0 e2 19 f9 bd da ac 15 3e 03 d4 8f bd de e3 33 3e
       -0.1216314 0.14616719 -0.0702286 0.17567393
0002d0 6c 17 9c 3e 79 e6 29 3e 65 8a 26 3e eb a7 22 bd
       0.3048662 0.16591825 0.16263731 -0.03971092
0002e0 f0 b1 37 be 15 29 0e be 62 81 69 3e 84 dd 50 3e
       -0.17938972 -0.13882859 0.22803262 0.20397002
0002f0 83 c4 25 be 85 e9 46 3e 7e d1 0f bd 05 8e 40 3b
       -0.16188245 0.19425018 -0.035111897 0.0029381525
000300 82 0a a8 bd 89 4e 72 bd eb 4e 40 3c 38 d8 f1 3d
       -0.08205129 -0.05915693 0.0117375655 0.118088186
000310 01 02 e9 bc 1a 43 55 bd 84 09 00 3e bb 8e 89 3d
       -0.028443338 -0.052065946 0.1250363 0.06716677
000320 9a b9 ee 3d d5 55 e6 3c 92 72 fa 3e ea 1a f6 bd
       0.116564944 0.0281171 0.48915535 -0.12016852
000330 d5 78 da 3d 9b 44 a6 be 4f 4c b0 3e 04 1f 8e 3e
       0.10667578 -0.32474217 0.3443322 0.27758038
000340 86 3a 0c 3f f5 a4 f5 bc e3 d5 7b 3e c8 1c bc 3e
       0.547768 -0.029985884 0.2459331 0.36740708
000350 04 69 cf bd fe cd 70 bd 7e 65 c6 bd 49 83 3d be
       -0.10127452 -0.0587902 -0.09687327 -0.18507113
000360 74 7a 6d be 3b 7e 3e be 63 44 89 3e f4 3d 85 3e
       -0.23191243 -0.1860284 0.26809987 0.2602383
000370 9e bc 1b 3e 95 e4 78 3e 64 b3 31 3e 60 92 2b bd
       0.1520867 0.24305947 0.17353588 -0.04188764
000380 b2 e1 c7 bd 79 68 f7 3d 4d 1b 23 bd 90 cd b3 3e
       -0.09759845 0.120804735 -0.039820958 0.3511777
000390 ef ca 73 be a6 fd 53 be 6d 1a 58 3b 05 a4 5d be
       -0.23807882 -0.20702228 0.0032974735 -0.216446
0003a0 f4 71 3e 3d a4 6d 73 3e 43 14 f9 3e 79 5f 0d 3e
       0.046495393 0.23772293 0.4864827 0.13805951
0003b0 c3 c2 02 be c9 91 48 3d cd f2 a7 bd 23 af b3 3d
       -0.12769608 0.048967157 -0.082006074 0.08773639
0003c0 9e c2 78 be 2f 0b 9a 3d d7 bc 94 bd d2 07 42 be
       -0.2429299 0.07521664 -0.07262581 -0.18948296
0003d0 8d 24 50 3e 1c 6a 03 bd 27 c1 86 bb f7 ce 64 3c
       0.20326443 -0.032083616 -0.004112381 0.01396536
0003e0 2e 78 1e 3e e7 9c 75 be a8 cd 7f 3d 80 f1 de 3d
       0.15475532 -0.23985635 0.06245199 0.10885906
0003f0 5b b7 f4 bd 7e 43 25 be 0d 25 cb 3e 15 d0 30 3d
       -0.11949035 -0.16139027 0.39676705 0.043167192

fc2.bias f4 [10]
000000 e4 a1 d7 3d e3 8a 22 3e 3b 35 76 bd 27 5f 06 be
       0.10528925 0.15873294 -0.06010936 -0.13122235
000010 05 4d a9 bd 68 3d df bd e2 b3 97 bc 13 a5 02 bd
       -0.082666434 -0.10900384 -0.018518392 -0.03189571
000020 d2 85 22 3e 42 cf a9 3d
       0.15871361 0.082914844
